sepia/data/net_sepia_base.pth (torch_old, 876 bytes, 2 tensors)

conv1.weight f4 [3, 3, 3, 3]
0	0xbc94cb9f	-0.0181635
1	0xbd9e1606	-0.077190444
2	0xbd36c634	-0.044622615
3	0xbd27e28e	-0.040987544
4	0x3e0fa048	0.14025986
5	0xbce1b799	-0.027553366
6	0x3db1fca6	0.08690767
7	0x3e4a6db8	0.19768417
8	0x3d432833	0.04764576
9	0xbca6b1f6	-0.02034853
10	0x3dc74f14	0.0973188
11	0xbdbfeae9	-0.093709774
12	0xbe02127c	-0.12702364
13	0xbdfbf8d8	-0.123033226
14	0x3d0f967c	0.035055622
15	0x3dfc8acd	0.12331162
16	0x3caf3ee4	0.021392293
17	0x3d57f4c8	0.052723676
18	0xbb1186ca	-0.0022205585
19	0x3dbd2fe1	0.09237648
20	0x3cd93f9f	0.026519595
21	0x3e0c77e6	0.13717613
22	0x3b934752	0.004494586
23	0x3d2bf8dc	0.041985378
24	0x3b30a246	0.0026952191
25	0xbd5bd424	-0.05366911
26	0x3e58bb51	0.21165206
27	0x3da48dae	0.08034836
28	0x3dfd7564	0.12375906
29	0x3c1a455b	0.00941595
30	0xbdb9861e	-0.09058784
31	0x3d1ff7d8	0.03905472
32	0xbbd9b06a	-0.0066433446
33	0xbe0e96ad	-0.13924666
34	0x3dd17c07	0.102287345
35	0x3df5b8dd	0.119981505
36	0x3e4fafd2	0.20281914
37	0xbaa3c8c0	-0.0012495741
38	0xbbbd84ab	-0.0057836375
39	0xbe06c4fa	-0.13161078
40	0x3d804a60	0.06264186
41	0x3e351279	0.17682828
42	0x3e1e66c8	0.15468895
43	0x3e44d6e3	0.19222598
44	0xbdced7c2	-0.10099746
45	0x3e32191e	0.17392394
46	0xbd27476a	-0.04083959
47	0x3dd2dc42	0.10295917
48	0x3df8ac41	0.1214223
49	0x3e47149e	0.19441459
50	0xbd904bba	-0.07045694
51	0x3abfc5b4	0.0014631064
52	0x3dc83795	0.097762264
53	0xbca39b9e	-0.019971665
54	0xbe139c66	-0.1441513
55	0x3d90ff2d	0.07079921
56	0x3da9b5f1	0.08286656
57	0x3dc86fd1	0.09786952
58	0x3de0000f	0.10937511
59	0xbd822227	-0.0635417
60	0x3d83bb70	0.06432235
61	0x3e0113ba	0.12605181
62	0x3e278957	0.16360985
63	0x3e3a89a7	0.18216573
64	0x3e27e228	0.16394866
65	0x3e348672	0.17629412
66	0xbddcb25c	-0.10776207
67	0xbc91df04	-0.017806537
68	0xbda653ab	-0.08121427
69	0xbdbe80cb	-0.09301909
70	0x3d943e9e	0.07238506
71	0x3c5dc370	0.013535365
72	0x3d8340a3	0.06408813
73	0x3e0fec00	0.1405487
74	0x3d6734d5	0.05644687
75	0x3e748bb6	0.2388142
76	0xbd9c1c22	-0.076225534
77	0x3da6bed8	0.08141869
78	0x3e1be86f	0.15225385
79	0xbd05c582	-0.03265906
80	0xbdaff717	-0.085920505

conv1.bias f4 [3]
0	0x3e24097a	0.1601924
1	0xbd2e1211	-0.0424977
2	0x3b3d4a04	0.0028883228
