sharpen_filter/data/checkpoints/net_sharpen_final.pth (torch_old, 876 bytes, 2 tensors)

conv1.weight f4 [3, 3, 3, 3]
0	0xbb716ddd	-0.0036839165
1	0xbc7c1a9a	-0.015387202
2	0xbcec7134	-0.028862573
3	0x3d1f2694	0.03885515
4	0x3f9e2cf9	1.2357475
5	0xbcfd290e	-0.030903365
6	0xbe61ead3	-0.22062235
7	0x3d9e73f2	0.077369586
8	0xbe2678d8	-0.16257036
9	0xbe731bfa	-0.23741141
10	0xbd45a9fe	-0.04825782
11	0xbe6ba005	-0.23010261
12	0x3d09dbda	0.033656932
13	0x3f7806e0	0.9688549
14	0xbd2f42d8	-0.042788357
15	0xbd3003c4	-0.04297234
16	0xbe69e596	-0.22841486
17	0xbe15bcdb	-0.14622824
18	0xbd4887de	-0.048957698
19	0xbd9a66eb	-0.07539161
20	0xbcbbe825	-0.022937844
21	0xbe7adf0f	-0.24499153
22	0x3f27dabf	0.65568155
23	0xbdd6d3bd	-0.104896046
24	0xbd413787	-0.047172096
25	0xbdc454ae	-0.09586464
26	0xbc43f8fe	-0.01196122
27	0xbd35d515	-0.044392664
28	0xbdbc4587	-0.09192949
29	0xbe1af6e5	-0.15133245
30	0xbd67ed47	-0.05662277
31	0x3f39fdb7	0.72652763
32	0xbc098706	-0.0083940085
33	0x3b25d075	0.0025301252
34	0xbe48b77f	-0.19601248
35	0xbe1cfdbf	-0.15331171
36	0xbdf215f7	-0.11820596
37	0x3e059d4c	0.13048285
38	0xbdbc9a85	-0.0920916
39	0x3d28f3fc	0.041248307
40	0x3fad9c79	1.3563377
41	0xbe2065a8	-0.15663779
42	0xbe928b8d	-0.28622094
43	0x3d0475f8	0.032339066
44	0xbd5ca05a	-0.05386386
45	0xbe06f1ff	-0.13178252
46	0xbe55dcb4	-0.20884973
47	0xbd595f48	-0.053069383
48	0xbe14fe84	-0.14550215
49	0x3f5be015	0.858888
50	0x3a946d5a	0.0011324093
51	0xbd77dd42	-0.060513742
52	0xbd6f38da	-0.058403827
53	0xbe236b98	-0.15959013
54	0xbdb82b76	-0.089926645
55	0x3ceada01	0.028668405
56	0xbe09d7db	-0.13461249
57	0xbde58e14	-0.1120874
58	0x3f1b0ad0	0.60563374
59	0xbdc0c338	-0.09412235
60	0xbd9c9600	-0.07645798
61	0x3c69ac45	0.014262264
62	0xbe215daa	-0.15758386
63	0xbe2abf9f	-0.1667466
64	0xbe098431	-0.13429333
65	0xbdee0fc0	-0.11624098
66	0x3c9dcb6d	0.01926204
67	0x3f8b15bf	1.0866011
68	0xbd8777ef	-0.066146724
69	0xbe38b7c5	-0.18038853
70	0xbe90aabc	-0.2825526
71	0xbe077333	-0.13227539
72	0xbd86922b	-0.06570848
73	0xbd4660f3	-0.0484323
74	0x3c40e262	0.011772724
75	0xbc86c934	-0.016453363
76	0x3f9629c8	1.1731501
77	0xbd57f5c9	-0.052724633
78	0xbdba1b29	-0.09087212
79	0x3d71c844	0.05902888
80	0xbd63a093	-0.055573057

conv1.bias f4 [3]
0	0x3d245c2e	0.040126972
1	0x3d2c7d61	0.04211176
2	0x3d2de193	0.042451452
