canny_filter/data/net.pth (torch_old, 7726 bytes, 5 tensors)

conv1.weight f4 [16, 3, 3, 3]
000000 e7 79 2d be 5c be 17 be e9 53 a6 bd d0 33 42 be
       -0.16941033 -0.1481871 -0.08121473 -0.18965077
000010 bd bf 7a 3d 2c 95 0b 3d 27 74 8e bd 64 10 a1 3c
       0.061218012 0.03407781 -0.06955748 0.019661136
000020 d1 4a d1 3d dc 1a 4b bd b6 61 3e 3e 06 88 04 3e
       0.10219348 -0.049586162 0.18591961 0.12942514
000030 21 ed a5 3d 50 1a bd bd a2 37 b0 bd 51 d9 a9 bd
       0.081018694 -0.09233534 -0.08604361 -0.08293403
000040 37 8b 29 3e 3c 2e 23 be 92 5f 30 be 4e 6a 06 3e
       0.16557012 -0.15935606 -0.17223957 0.1312649
000050 a3 1c 2d be 97 f5 9b bd 6f fc 49 3c b1 f5 82 bd
       -0.16905455 -0.07615202 0.012328251 -0.06394518
000060 ee ba a1 3d 3e d0 c7 3d 8b 30 8e 3d 35 39 c4 3c
       0.07896982 0.09756516 0.069428526 0.02395306
000070 24 67 6f 3d f1 6b ca bd bc 7d 02 bd 68 dc 1d 3d
       0.058447972 -0.098838694 -0.03185819 0.038540274
000080 d7 37 1a 3e b1 fe 15 3e fc f7 81 bd 04 c6 28 be
       0.15060364 0.14647938 -0.063461274 -0.16481787
000090 a6 34 d1 bb fa 39 40 bd a5 ec 05 3e b3 62 00 bc
       -0.00638445 -0.04693029 0.13078554 -0.007836032
0000a0 fb 5c f2 3b f6 08 2e 3d 5c a6 46 3c f1 c4 e8 bc
       0.007396338 0.042489015 0.012124624 -0.028414221
0000b0 68 6a c0 bd 3d fd 32 3e 42 85 9c 3d 97 11 be bd
       -0.093952954 0.17479415 0.076426044 -0.09280699
0000c0 b6 97 90 3d 77 29 11 3e 67 4e f7 bc 82 24 2c be
       0.070601866 0.14175974 -0.030188752 -0.16810802
0000d0 b6 24 81 bd 98 f6 67 3d c4 22 13 bc 62 26 cd bd
       -0.0630583 0.056631655 -0.008980457 -0.100170866
0000e0 0c b3 ab 3d 15 b8 2c bd b2 8d f9 3c dc 2f 01 be
       0.0838376 -0.04216774 0.030463073 -0.12615913
0000f0 59 e9 14 be 8d bb 30 3e 65 de 7e 3d 92 d2 1b 3e
       -0.1454214 0.17259045 0.06222381 0.15217045
000100 9e ff b5 bd d4 13 ac 3d 9d ad e9 bd 2f 11 17 be
       -0.08886646 0.084022194 -0.11410067 -0.14752649
000110 8c bf 40 be b9 ea 3c 3d 03 5e 8c bb 61 26 75 3d
       -0.1882307 0.046122286 -0.004283668 0.059851054
000120 1a 82 17 be e6 0a 97 3d dc 46 11 be b8 ba cf bc
       -0.14795724 0.073751256 -0.14187187 -0.02535759
000130 9a 4f b2 bd 18 53 fa bd 21 17 83 bc 99 c0 1d 3e
       -0.08706589 -0.1222288 -0.01600224 0.15405501
000140 f9 f0 cf bc c6 1e a3 3d 19 b2 22 3e 6a b8 b7 3d
       -0.02538346 0.07964854 0.15888251 0.08970721
000150 4b d2 d5 3c fe 82 e5 3d c0 0b c7 bd 33 35 bb bd
       0.026101252 0.112066254 -0.09719038 -0.09141006
000160 65 69 42 be 6a 81 a7 bd 55 f8 b8 bc 06 9d 13 bd
       -0.18985517 -0.08178981 -0.022579351 -0.03603842
000170 13 33 79 bd 2c d8 b0 bd 04 db 89 3d 3f 60 13 3e
       -0.060839724 -0.086349815 0.06731227 0.14392184
000180 db 5b fc bd 53 11 22 3e e6 ee c6 3c c6 fe 63 3c
       -0.123222075 0.15826921 0.024283838 0.013915723
000190 33 e4 11 3e 5b eb 58 bc fc 99 03 3e 01 3a 10 bc
       0.14247207 -0.013239707 0.12851709 -0.008802892
0001a0 14 1b 27 3e 99 a7 b2 bd c9 c3 b8 3d c1 b0 22 be
       0.16318923 -0.08723373 0.09021718 -0.15887739
0001b0 7c 6d cb bd 38 01 ae bd 8c 83 24 bd 84 a7 0b 3d
       -0.09932992 -0.08496326 -0.040164515 0.034095302
0001c0 85 70 8a bc dd 0e 23 bd 62 f0 9c 3d 6f f5 1f 3e
       -0.016899357 -0.039809097 0.07663037 0.15620969
0001d0 73 a1 03 bb da 99 21 3d 92 b9 d2 bd 2c 4b 51 bd
       -0.0020085245 0.039453365 -0.10289301 -0.05109708
0001e0 49 ad 43 be 01 ba 22 bd 13 25 1e bd 0e 2f b2 ba
       -0.19109072 -0.03972817 -0.038609575 -0.0013594346
0001f0 c3 78 1c bd 73 94 15 3d c8 87 f9 3c 0c b2 18 3e
       -0.038201105 0.036518525 0.030460253 0.1491167
000200 b8 28 33 3e fd fa 2d 3e d3 e8 1f be 3e 79 38 3e
       0.17496002 0.16990276 -0.15616159 0.18015
000210 a2 87 ce 3d 63 c4 9b 3c 93 6e 14 3e fe 55 8a bd
       0.10084464 0.019014543 0.14495306 -0.06754683
000220 a0 eb 2f be da 84 23 be 46 e2 82 3c 83 f6 e2 bd
       -0.17179728 -0.15968648 0.015977036 -0.11082175
000230 72 f3 63 bd 26 22 16 be 8b d9 f7 b9 cd e3 92 3d
       -0.05565209 -0.14661464 -0.00047273593 0.07172356
000240 ac d2 16 be c0 91 b4 bd d5 ea de bb 3b 65 d9 bd
       -0.14728802 -0.08816862 -0.0068028965 -0.10615011
000250 aa 6f 3d be ff 45 36 bd f5 0e 22 be fc 74 10 bd
       -0.18499628 -0.044500347 -0.15826018 -0.035267815
000260 80 66 3e be 98 58 16 bd 98 ce 84 3c 49 81 38 3e
       -0.18593788 -0.036705583 0.016211793 0.18018068
000270 34 9b ec 3d 85 db e0 bd 27 80 ce 3d c8 01 00 be
       0.1155304 -0.1097937 0.10083037 -0.1250068
000280 6f c3 59 3d e5 f5 14 3d 63 d9 25 3d d7 7e 1b 3d
       0.053164896 0.036367316 0.04049052 0.03796276
000290 9f 82 6a bc 38 22 d8 bd 73 62 33 3d f2 51 cf bd
       -0.014313369 -0.10553402 0.04379506 -0.10123052
0002a0 11 62 19 3e 81 f1 3d bd 81 9d 2a be e4 33 29 bc
       0.14978816 -0.046372894 -0.16661645 -0.010327313
0002b0 13 bc ad 3d 66 0d f0 3d 06 60 1b be 8b c9 a2 bc
       0.08483138 0.117213055 -0.15173349 -0.019871494
0002c0 15 8c 9c bc db f0 c2 3d 01 2e 17 3e 9b 35 87 3c
       -0.019109765 0.09518596 0.14763643 0.016505053
0002d0 2c 76 24 be f2 10 8d 3d de 67 c2 3d 80 ca f9 3d
       -0.16060704 0.06887998 0.09492467 0.12196827
0002e0 0a dd fc bd 89 a3 d7 bd d4 55 df bc a3 c1 82 3d
       -0.12346847 -0.10529239 -0.027262606 0.063845895
0002f0 3c 8a 0f be 73 1c 34 3e e0 4f 77 bb ea eb 28 be
       -0.14017576 0.17588978 -0.0037736818 -0.16496244
000300 6a 0a 13 be ad c6 3c 3d d6 23 2e 3e 60 42 5f 3d
       -0.14359441 0.04608791 0.17005858 0.05450666
000310 82 56 17 bb c0 87 d2 bc 77 02 6f 3d 57 20 16 3e
       -0.0023092334 -0.025699496 0.05835196 0.14660774
000320 5e 77 36 3d 75 57 1d 3e af 9f 2a be 4a e7 27 bd
       0.04454743 0.15365393 -0.16662477 -0.04099206
000330 87 cd b4 bd cf 56 27 3e 2d 41 a9 bd 80 51 e5 bd
       -0.08828264 0.16341709 -0.082643844 -0.111971855
000340 ee ce 12 3e 5b ad 91 bd cc 9c 03 be 71 f1 98 3d
       0.1433675 -0.07113143 -0.12852782 0.07467926
000350 c8 31 35 3d 0f 60 ce 3d 68 b6 2e 3e 11 7e 4a 3c
       0.04423693 0.100769155 0.1706177 0.012359158
000360 19 a7 2f 3d d2 e7 d8 bd a8 65 94 3d 89 f5 1c 3c
       0.042883966 -0.10591091 0.07245952 0.0095800245
000370 d6 0a 3c 3c df 61 17 be aa 98 0f 3e 54 08 cb 3b
       0.011477193 -0.14783429 0.1402308 0.006196061
000380 c9 97 20 be 89 eb 33 3e 0a 46 d2 bd 75 c4 e2 bd
       -0.15682901 0.17570318 -0.10267265 -0.110726275
000390 a0 a5 6e 3d 8b fa db 3d 30 c1 2e 3e 9e f4 73 bd
       0.05826342 0.10741147 0.17065883 -0.059559457
0003a0 22 6e 3a 3e a8 53 2b be d8 c1 66 bd 82 ad e9 bb
       0.18206075 -0.16731131 -0.056337208 -0.0071312794
0003b0 f7 56 aa 3a 4e 93 1a be 00 78 e8 3d 04 57 33 be
       0.0012995888 -0.15095255 0.11351013 -0.17513663
0003c0 6b 72 19 3e c4 6d 3b be ae d0 fe bd 89 09 2c be
       0.14985053 -0.18303591 -0.12442146 -0.16800512
0003d0 68 af 50 3d 6a 7b c0 bd 89 b6 19 3e 7c f4 28 be
       0.05094853 -0.09398539 0.15011038 -0.16499513
0003e0 04 14 07 3d 7b 72 cb bd bc 95 b0 3c b9 e0 08 be
       0.032978073 -0.09933945 0.021555774 -0.13366975
0003f0 b6 22 a0 3d 73 97 fe 3c 99 c5 bf bd b6 29 e9 3d
       0.078191206 0.031078076 -0.09363861 0.11384909

conv1.bias f4 [16]
000000 e7 64 3f 3d c4 62 0c be e1 3d ab 3d 7a c2 1e 3e
       0.046727087 -0.13709551 0.08361412 0.15503874
000010 74 39 7b bd 41 60 07 bd 49 35 fe bc cf 7c 09 3e
       -0.06133409 -0.03305078 -0.031031268 0.13426517
000020 9e ab 51 bd 0c 24 3a be 5d 01 a4 3a 45 07 e7 3c
       -0.051189058 -0.18177813 0.0012512613 0.028201709
000030 e5 5b 08 be 1c 3d fb bd dd 5b a3 3d 89 ce 15 be
       -0.13316305 -0.12267515 0.07976506 -0.14629568

conv2.weight f4 [8, 16, 3, 3]
000000 59 22 1c bd 06 19 47 3d ae f9 78 bd 52 79 4d 3d
       -0.038118694 0.04860785 -0.060784988 0.05016453
000010 0d 67 a2 3c ab 42 3a bb ea 21 a1 bd 25 95 03 3d
       0.019824529 -0.0028421085 -0.07867797 0.032124657
000020 54 e9 85 bd d2 b4 7d 3d 66 ac 0e bd 1e a0 9a bd
       -0.065386444 0.06194002 -0.03483238 -0.07550071
000030 22 70 6e bc 93 1d 65 bc 4e 66 31 bd 29 1f ab bc
       -0.014553102 -0.013984102 -0.043310456 -0.020888882
000040 b9 70 cd 3c d8 d2 84 bb 2e ce 9f 3d 38 18 8c 3b
       0.025078164 -0.004053455 0.078029975 0.004275348
000050 06 34 62 3d 8a 6a 76 3d 85 88 0f 3d 28 8a 09 3c
       0.055225395 0.060160197 0.035042305 0.008394755
000060 92 96 e2 bc 75 ed 58 bc 97 9e 8c 3d b2 b8 9e 3d
       -0.027659688 -0.013240208 0.06866186 0.077500716
000070 5c 65 15 3d a0 81 4d 3d 26 70 ef bc a4 83 9d 3d
       0.036473617 0.05017245 -0.029228281 0.07691124
000080 9b 0b 79 bd b8 37 1d 3d b1 85 0a bd 0e ba 41 3d
       -0.060802083 0.038383216 -0.033818904 0.047296576
000090 03 4f 88 3d 09 3c 8f 3c cc bb b6 3c 85 ae 9a 3d
       0.06655695 0.017484682 0.022306345 0.07552818
0000a0 68 3c 39 3d f8 5f 8d bc 6c 81 d6 bc 82 4e 57 3d
       0.045223624 -0.017257676 -0.02618476 0.052565105
0000b0 89 e6 f5 3c 13 37 4e bd be 69 61 3d 78 a0 55 3d
       0.030017154 -0.05034549 0.055032484 0.052154988
0000c0 87 a3 a1 bd 00 02 2a bd 76 13 1f 3d 53 de 89 bd
       -0.078925185 -0.041505814 0.03883692 -0.06731858
0000d0 62 80 b8 bc 0e 16 d9 3c 4d ce 58 3d 3e c3 78 bc
       -0.022522155 0.026499774 0.05293112 -0.015183268
0000e0 18 ec 28 3d 4a 5b 15 bd 0c 52 9e bd fd b4 cb 3c
       0.04124078 -0.036464013 -0.07730493 0.024866575
0000f0 96 df 20 bd c3 a6 92 3d 76 19 ca bc 0d 3b c8 bc
       -0.03927573 0.071607135 -0.024670344 -0.02444222
000100 9e 45 b1 3c a6 62 32 3d 8a 80 98 bd 2c 53 a8 bd
       0.021639641 0.04355111 -0.07446392 -0.08218989
000110 96 dc a4 3d 68 47 3c bd 5c e2 45 bd c6 4f df bb
       0.08049886 -0.045966536 -0.048311576 -0.0068149297
000120 50 ee a3 3d 0b 5b d4 bb 5c 79 8f bc aa 3c 4b 3c
       0.08004439 -0.0064805797 -0.017513923 0.0124046
000130 56 26 4a 3d 0b 65 3d bd 6d 6c d5 3c fb f1 60 3d
       0.049352966 -0.04623894 0.026052678 0.05491827
000140 e3 a2 7f 3d f8 64 5b bc c6 dd c7 3b e2 60 31 3d
       0.0624112 -0.013390772 0.0060994355 0.043305285
000150 54 05 83 3c 5d d1 90 3d f8 41 29 3c 3c 5f 03 bc
       0.015993752 0.07071183 0.01033067 -0.008018311
000160 d3 f7 85 bd 6b 46 2b bd 48 71 15 3d c4 08 67 bc
       -0.06541409 -0.041815203 0.036484987 -0.014101211
000170 16 14 30 bd a3 ae 93 bd 2b 85 8e 3d a9 ff 60 bd
       -0.042987905 -0.07211044 0.069589935 -0.054931317
000180 c0 79 89 3d ef af 2e bd b9 ce 6b bd ee 03 a3 bd
       0.06712675 -0.042648252 -0.057570193 -0.07959734
000190 13 4a 8a bd fc 00 9b 3c 13 2c 14 3d 18 21 94 3c
       -0.0675241 0.018921368 0.036174845 0.018082187
0001a0 9b 02 25 bd 49 45 e1 ba 15 b5 d1 bc a4 44 47 bd
       -0.040285688 -0.0017186786 -0.025599042 -0.048649445
0001b0 e2 92 6a 3a 9d e6 b0 3c e0 85 5a bd fb ef 6d 3c
       0.0008948279 0.02159434 -0.05335033 0.014522548
0001c0 b3 e6 dc bc 0a 60 2d 3d 8f c1 b0 bb ba a6 4f 3d
       -0.026965475 0.042327918 -0.0053941677 0.050696112
0001d0 6f 53 98 3c 57 d1 8e bd fa d6 92 bd 47 55 03 bd
       0.018594472 -0.06973522 -0.0716991 -0.03206375
0001e0 e4 81 4e bd a4 45 87 3d 89 7f 34 bd 2c 4f 08 bd
       -0.050416842 0.0660508 -0.04406694 -0.03327863
0001f0 65 43 68 3d 6f 6f e8 3c 21 39 8d 3d b4 e2 4f bd
       0.056704897 0.028373448 0.06895662 -0.05075331
000200 6d a1 37 bd a1 7e 1a bd 26 04 cb bc 3c 70 25 3d
       -0.044831682 -0.03771842 -0.024782252 0.04039024
000210 a7 7a 12 bd 57 61 41 3a c1 d1 10 3c 26 59 cd bc
       -0.0357615 0.00073768705 0.008839072 -0.025066923
000220 e7 d7 09 bb 2d 47 f7 3b 1e a8 51 3d 5b c6 48 bd
       -0.002103323 0.0075463266 0.05118572 -0.04901729
000230 e6 79 23 3d 53 4b 75 bc 99 1b 84 3d 78 05 e1 ba
       0.039911173 -0.014971572 0.06450576 -0.0017167768
000240 af f7 20 3d b4 ce a1 3d c2 f9 a3 3d 71 39 2d bc
       0.03929871 0.079007536 0.08006622 -0.010572777
000250 f4 67 91 3d b1 67 06 3d 60 19 92 3c bf a6 49 bc
       0.070999056 0.03281373 0.017834365 -0.012307822
000260 e9 3f a3 3d 78 e2 84 3b a5 69 9b 3d 2d 51 92 3d
       0.07971174 0.0040553175 0.075885095 0.07144389
000270 e6 5a fc bc 50 5e 0c bd 56 5d 2a bd b6 c7 22 bd
       -0.030805063 -0.03426963 -0.04159292 -0.03974124
000280 53 86 a0 3c 0b e0 60 bc 78 c4 93 bd 4b a1 1d bd
       0.0195953 -0.013725291 -0.07215208 -0.0384839
000290 cb c9 8c bd 79 54 fa bc 33 b2 ba bb 37 16 44 3b
       -0.068744265 -0.030557858 -0.0056975125 0.0029920468
0002a0 8f e8 90 3d 87 1e c1 bc 5b 9d 6d 3c db 34 9f bc
       0.07075607 -0.023574127 0.0145028485 -0.019434383
0002b0 d4 50 0a bd 09 06 b6 bc 8b 0e cd 3a 2b 55 b8 3b
       -0.03376849 -0.022219675 0.0015644593 0.005625387
0002c0 94 4f 92 bd 51 e3 b8 bc cc 43 4c bb fa c0 96 3d
       -0.071440846 -0.02256933 -0.003116834 0.07361026
0002d0 02 0b 7f 3b e4 a4 b9 3c 70 2e 19 3c f2 26 29 bd
       0.0038916473 0.022661634 0.0093494505 -0.041296907
0002e0 17 73 28 3c 1f ff 34 bd de 57 85 bd e9 d3 24 3d
       0.010281346 -0.044188615 -0.065109 0.040241156
0002f0 e7 75 3a bd 83 42 20 3a 79 47 9d 3d 52 a3 9c 3d
       -0.045522597 0.00061134266 0.07679648 0.076483384
000300 4f e9 c1 ba cf f8 0b bd e0 34 70 bd 48 a4 dc 3c
       -0.0014794263 -0.03417283 -0.058644176 0.026933804
000310 44 cb 82 3d eb 6a a4 bd 24 b3 4d 3d 05 7c a0 3d
       0.06386426 -0.080282055 0.05021967 0.07836155
000320 5d cb 29 bb e4 eb 72 bd 2f 3e 02 bd 16 7a aa bd
       -0.0025908567 -0.059306994 -0.031797584 -0.08324067
000330 15 06 1f 3d 2e 67 51 3d 5a 05 98 bd 37 a8 84 bd
       0.03882416 0.05112379 -0.07422896 -0.06477397
000340 3d a7 1b 3d a9 fe 0e 3d 00 7e 32 bd 68 7f a8 3d
       0.038001288 0.03491083 -0.043577194 0.08227426
000350 cc 11 3d 3c 71 3a 34 3d a0 ed a7 3c 2f 60 69 3c
       0.011539888 0.044001047 0.02049905 0.014244123
000360 54 d3 62 3d 59 c7 7a bd c1 c2 88 bd e8 6c 4b 3d
       0.05537732 -0.06122527 -0.06677771 0.049664408
000370 48 6e 37 3d f4 f1 94 bd 0e 5c 7d bd 17 57 89 bd
       0.044782907 -0.072727114 -0.06185537 -0.06706064
000380 c5 3b 5e 3c 27 65 a2 bd 60 60 a1 bb 31 58 83 3d
       0.013564055 -0.079294495 -0.004924819 0.064133056
000390 73 9a 70 bd f2 ea 4d 3d ab 24 0e bd a3 7f 7f bc
       -0.058741044 0.05027289 -0.034702938 -0.015594396
0003a0 11 86 9b b9 80 04 e2 3c 81 ce 4b bd 3c e8 c3 bc
       -0.0002966379 0.027590036 -0.049757484 -0.023914449
0003b0 21 a1 8d 3d 3b 42 f5 bc 38 e6 7c bd d9 9f 97 3d
       0.069154985 -0.029938808 -0.06174299 0.074035354
0003c0 9b 7c 81 bc e8 a6 90 bd 55 eb a2 3d eb 3b 58 3d
       -0.015806487 -0.07063085 0.07955042 0.052791517
0003d0 b7 2c 3f bd 51 a0 82 3d 93 36 5e 3d ad 12 46 bc
       -0.046673503 0.06378234 0.054251265 -0.012089414
0003e0 42 7d 8e bd 9e cb 1b 3d 80 45 9e 3d 67 38 96 bc
       -0.06957485 0.03803598 0.077281 -0.018337442
0003f0 05 79 96 3d e1 4f 9e 3d d3 9c 00 3c 67 56 47 bd
       0.073473014 0.077300794 0.00784989 -0.048666384

conv2.bias f4 [8]
000000 3d 3c a5 3d ca fa 4f 3d d2 dd 8d bd f6 1a ea bc
       0.0806813 0.05077628 -0.069270745 -0.02857731
000010 ee a4 39 bd 9d dc f0 3c 66 27 68 bd 2f 0f 7e bd
       -0.045323305 0.029402072 -0.0566782 -0.0620262

conv3.weight f4 [1, 8, 3, 3]
000000 a7 65 b0 3d 42 99 3c 3d 0c 2a cb bd 33 46 c8 3d
       0.08613139 0.046044596 -0.09920129 0.097790144
000010 97 73 3a bd 12 e6 cc bc 42 e0 51 3c 05 09 3e 3d
       -0.04552039 -0.02501205 0.012809815 0.04639532
000020 d1 f1 9a 3d 16 cc f3 3c 56 87 09 bc 44 f5 af bd
       0.07565654 0.029760402 -0.008394083 -0.085917026
000030 d7 9d 5e bd 1c df 85 bd e2 6e 41 3d 67 ec 5f bd
       -0.054349747 -0.06536695 0.047224887 -0.05466881
000040 ca ff 86 3d 57 51 c3 bd 00 85 19 bc 84 4c c3 bd
       0.06591757 -0.09536999 -0.009370089 -0.095360786
000050 cc ce b7 bd 4f 19 a7 bd 98 a0 93 bd ec df 23 bd
       -0.0897499 -0.08159124 -0.07208365 -0.04000847
000060 d4 37 ab 3c 20 27 85 3b 00 05 cb b9 e3 68 a1 3d
       0.020900644 0.004063502 -0.00038722903 0.07881334
000070 7d 13 f0 bd 06 82 8a bd 54 14 e0 3c 67 04 90 3d
       -0.11722467 -0.06763081 0.027353443 0.0703209
000080 60 8d 17 bd 00 d0 d2 39 3e 6b c8 bd ef 78 9b bd
       -0.03700006 0.00040209293 -0.0978608 -0.075914256
000090 22 39 0a 3d e4 f0 05 bd 90 31 b1 bd 4a 8e 3e 3d
       0.033745892 -0.032700434 -0.086520314 0.046522416
0000a0 02 ec 2c 3d f1 5c 8a 3d ce 30 79 3d c1 8d c5 3d
       0.042217262 0.067560084 0.06083756 0.09646178
0000b0 26 e1 1d 3d 95 ab 63 bd 8a c7 9f 3d 32 94 da 3b
       0.038544796 -0.055583555 0.07801731 0.0066704983
0000c0 78 1e ba bd a0 06 e1 bd 71 79 d7 bd c0 9a d3 bd
       -0.09087843 -0.10987592 -0.1052121 -0.103322506
0000d0 ff 09 29 bd 8f 63 9f 3d 6d 78 86 bd da 9b 29 bd
       -0.0412693 0.07782661 -0.06565938 -0.041408397
0000e0 4d d8 b1 3d 45 ac ca bd da 62 07 bd 15 fa b9 3d
       0.08683834 -0.09896139 -0.033053257 0.090809025
0000f0 2f 99 ec 3d d0 8d 4c bd 46 ea 4d 3d aa f0 c8 bd
       0.11552655 -0.04993993 0.05027225 -0.09811528
000100 86 e3 ee 3d 2d 3b 91 3d ef 05 be 3d 6e 8a a7 3b
       0.116644904 0.07091365 0.092784755 0.0051129377
000110 6f 80 72 3d 56 fa bd bd 28 fe 1a bd 17 54 0c 3b
       0.059204515 -0.092762634 -0.03784004 0.0021412426
