canny_filter/data/net.pth (torch_old, 652 bytes, 1 tensors)

conv1.weight f4 [1, 3, 3, 3]
-0.03595123 -0.010036593 -0.052063096 0.05607582 -0.013047919 -0.06533381 -0.0061665 -0.026936326
0.0690716 -0.13635126 -0.04332367 0.10150689 -0.022927254 -0.0006903371 0.12048494 0.11979166
0.12659599 0.052060135 0.08577335 -0.10291933 0.06767819 -0.051950153 -0.21016873 -0.05824557
0.06156798 0.023601279 -0.04791895
00000000: 9941 13bd 8670 24bc 1d40 55bd c2af 653d
00000010: f0c6 55bc bccd 85bd 5a10 cabb 92a9 dcbc
00000020: 6975 8d3d aa9f 0bbe 2974 31bd d8e2 cf3d
00000030: f0d1 bbbc bdf7 34ba cfc0 f63d 5455 f53d
00000040: 61a2 013e 023d 553d f0a9 af3d 5fc7 d2bd
00000050: dd9a 8a3d afc9 54bd 7936 57be e892 6ebd
00000060: b52e 7c3d 7857 c13c a946 44bd
