canny_filter/data/net.pth (torch_old, 652 bytes, 1 tensors)

conv1.weight f4 [1, 3, 3, 3]
00000000: 72f9 54bd f8c9 febd 53fe a8bd 0603 47bd
00000010: f5b7 2f3e 9fe3 133e 8b48 03be f8a1 013e
00000020: a066 273c e951 2e3d 68bc 03be d60f 303d
00000030: df8d ee3c 5bff 99bd af47 83bd 2970 b4bc
00000040: 1c6d ed3d af33 99bb f1f0 c63d 1705 f23d
00000050: e0d9 12bd a79c d1bc a0fc f4bb e12f bbbd
00000060: 02ef 6f3c 0006 bbbd eef4 173d
-0.051995702 -0.12440866 -0.082516335 -0.048586868 0.17160018 0.144423 -0.12820642 0.12659442
0.010217339 0.042558584 -0.1286484 0.042983852 0.029120384 -0.07519408 -0.06410157 -0.022026138
0.115930766 -0.0046753506 0.09713925 0.11817377 -0.035852313 -0.025587393 -0.0074764043 -0.091399916
0.014644386 -0.09132004 0.037098818
