canny_filter/data/net1.pth (torch_old, 7726 bytes, 5 tensors)

conv1.weight f4 [16, 3, 3, 3]
000000 fd 79 2d be 75 be 17 be 15 54 a6 bd e7 33 42 be
       -0.16941066 -0.14818747 -0.08121506 -0.18965112
000010 5b bf 7a 3d c7 94 0b 3d 58 74 8e bd 89 0f a1 3c
       0.061217647 0.034077432 -0.069557846 0.019660728
000020 99 4a d1 3d b7 1a 4b bd bb 61 3e 3e 0b 88 04 3e
       0.102193065 -0.049586024 0.18591969 0.12942521
000030 2f ed a5 3d 43 1a bd bd 96 37 b0 bd 45 d9 a9 bd
       0.0810188 -0.09233525 -0.08604352 -0.08293394
000040 37 8b 29 3e 3c 2e 23 be 74 5f 30 be 69 6a 06 3e
       0.16557012 -0.15935606 -0.17223912 0.1312653
000050 88 1c 2d be 5e f5 9b bd 1a fe 49 3c 7b f5 82 bd
       -0.16905415 -0.076151595 0.012328649 -0.06394478
000060 25 bb a1 3d 6e d0 c7 3d bb 30 8e 3d 32 39 c4 3c
       0.07897023 0.09756552 0.06942888 0.023953054
000070 24 67 6f 3d f1 6b ca bd bc 7d 02 bd 68 dc 1d 3d
       0.058447972 -0.098838694 -0.03185819 0.038540274
000080 d7 37 1a 3e b1 fe 15 3e fc f7 81 bd 04 c6 28 be
       0.15060364 0.14647938 -0.063461274 -0.16481787
000090 c6 34 d1 bb fc 39 40 bd a5 ec 05 3e c4 62 00 bc
       -0.006384465 -0.0469303 0.13078554 -0.007836048
0000a0 db 5c f2 3b f4 08 2e 3d 4a a6 46 3c f7 c4 e8 bc
       0.007396323 0.042489007 0.012124607 -0.028414233
0000b0 68 6a c0 bd 3d fd 32 3e 42 85 9c 3d 97 11 be bd
       -0.093952954 0.17479415 0.076426044 -0.09280699
0000c0 b6 97 90 3d 77 29 11 3e 74 4e f7 bc 82 24 2c be
       0.070601866 0.14175974 -0.030188777 -0.16810802
0000d0 b6 24 81 bd 94 f6 67 3d ae 22 13 bc 5f 26 cd bd
       -0.0630583 0.05663164 -0.008980436 -0.10017084
0000e0 0f b3 ab 3d 11 b8 2c bd bf 8d f9 3c dc 2f 01 be
       0.08383762 -0.042167727 0.030463098 -0.12615913
0000f0 58 e9 14 be 90 bb 30 3e 77 de 7e 3d 89 d2 1b 3e
       -0.14542139 0.1725905 0.062223878 0.15217032
000100 b0 ff b5 bd c2 13 ac 3d b2 ad e9 bd 38 11 17 be
       -0.08886659 0.08402206 -0.11410083 -0.14752662
000110 95 bf 40 be 98 ea 3c 3d cc 5e 8c bb 4c 26 75 3d
       -0.18823083 0.046122164 -0.0042837616 0.059850976
000120 2e 82 17 be c1 0a 97 3d f0 46 11 be 5e bb cf bc
       -0.14795753 0.07375098 -0.14187217 -0.025357898
000130 c1 4f b2 bd 3f 53 fa bd ba 17 83 bc 87 c0 1d 3e
       -0.08706618 -0.12222909 -0.016002525 0.15405475
000140 7c f1 cf bc 66 1e a3 3d e7 b1 22 3e 06 b8 b7 3d
       -0.025383703 0.079647824 0.15888177 0.089706466
000150 be d0 d5 3c 9c 82 e5 3d 21 0c c7 bd 93 35 bb bd
       0.026100513 0.112065524 -0.0971911 -0.09141078
000160 95 69 42 be c8 81 a7 bd e9 fa b8 bc 51 9e 13 bd
       -0.18985589 -0.08179051 -0.02258058 -0.036039654
000170 61 34 79 bd d3 d8 b0 bd 5c da 89 3d ec 5f 13 3e
       -0.060840968 -0.08635106 0.06731102 0.1439206
000180 81 5c fc bd 00 11 22 3e 66 ec c6 3c ff f7 63 3c
       -0.12322331 0.15826797 0.024282645 0.013914107
000190 c7 e3 11 3e 2a f2 58 bc 8f 99 03 3e e1 40 10 bc
       0.14247046 -0.01324133 0.12851547 -0.008804531
0001a0 a9 1a 27 3e 76 a8 b2 bd ed c2 b8 3d 2c b1 22 be
       0.16318764 -0.087235376 0.09021554 -0.15887898
0001b0 ae 6d cb bd 6d 01 ae bd f9 83 24 bd 21 a7 0b 3d
       -0.09933029 -0.08496366 -0.04016492 0.034094933
0001c0 51 71 8a bc 42 0f 23 bd 33 f0 9c 3d 56 f5 1f 3e
       -0.016899737 -0.039809473 0.07663002 0.15620932
0001d0 6a a7 03 bb 2b 99 21 3d ed b9 d2 bd e3 4b 51 bd
       -0.00200888 0.039452713 -0.10289369 -0.05109776
0001e0 76 ad 43 be b3 ba 22 bd c3 25 1e bd 3f 44 b2 ba
       -0.19109139 -0.03972883 -0.03861023 -0.0013600661
0001f0 6d 79 1c bd ca 93 15 3d f8 85 f9 3c cf b1 18 3e
       -0.03820174 0.036517896 0.03045939 0.14911579
000200 7b 28 33 3e c0 fa 2d 3e 10 e9 1f be 01 79 38 3e
       0.17495911 0.16990185 -0.1561625 0.1801491
000210 33 87 ce 3d 98 c2 9b 3c 56 6e 14 3e 22 56 8a bd
       0.10084381 0.019013688 0.14495215 -0.0675471
000220 b3 eb 2f be ee 84 23 be a8 e1 82 3c aa f6 e2 bd
       -0.17179756 -0.15968677 0.015976742 -0.11082204
000230 c8 f3 63 bd 3a 22 16 be 34 06 f8 b9 9d e3 92 3d
       -0.05565241 -0.14661494 -0.00047306868 0.0717232
000240 b2 d2 16 be cd 91 b4 bd d1 eb de bb 49 65 d9 bd
       -0.14728811 -0.08816872 -0.006803014 -0.10615022
000250 b1 6f 3d be 22 46 36 bd fe 0e 22 be 27 75 10 bd
       -0.18499638 -0.044500478 -0.15826032 -0.035267975
000260 8c 66 3e be 77 58 16 bd cf ce 84 3c 4f 81 38 3e
       -0.18593806 -0.03670546 0.016211895 0.18018077
000270 43 9b ec 3d 77 db e0 bd 30 80 ce 3d c2 01 00 be
       0.11553051 -0.109793596 0.100830436 -0.1250067
000280 7e c3 59 3d ed f5 14 3d 67 d9 25 3d da 7e 1b 3d
       0.05316495 0.036367346 0.040490534 0.037962772
000290 9e 82 6a bc 38 22 d8 bd 76 62 33 3d f2 51 cf bd
       -0.014313368 -0.10553402 0.04379507 -0.10123052
0002a0 11 62 19 3e 7e f1 3d bd 81 9d 2a be b2 33 29 bc
       0.14978816 -0.046372883 -0.16661645 -0.0103272665
0002b0 14 bc ad 3d 66 0d f0 3d 06 60 1b be 74 c9 a2 bc
       0.08483139 0.117213055 -0.15173349 -0.019871451
0002c0 ff 8b 9c bc dd f0 c2 3d 01 2e 17 3e af 35 87 3c
       -0.019109724 0.09518597 0.14763643 0.01650509
0002d0 2c 76 24 be f2 10 8d 3d de 67 c2 3d 81 ca f9 3d
       -0.16060704 0.06887998 0.09492467 0.12196828
0002e0 09 dd fc bd 87 a3 d7 bd bb 55 df bc a4 c1 82 3d
       -0.123468466 -0.10529237 -0.02726256 0.0638459
0002f0 3c 8a 0f be 9c 1c 34 3e f9 45 77 bb c1 eb 28 be
       -0.14017576 0.17589039 -0.0037730916 -0.16496183
000300 49 0a 13 be 39 c7 3c 3d f7 23 2e 3e de 42 5f 3d
       -0.14359392 0.04608843 0.17005907 0.05450713
000310 bb 4e 17 bb c3 86 d2 bc b3 03 6f 3d a6 20 16 3e
       -0.0023087699 -0.025699025 0.058353137 0.14660892
000320 98 78 36 3d c0 57 1d 3e 66 9f 2a be 27 e6 27 bd
       0.0445486 0.15365505 -0.16662368 -0.040990975
000330 f4 cc b4 bd 14 57 27 3e 9f 40 a9 bd a1 50 e5 bd
       -0.08828154 0.16341811 -0.082642786 -0.11197019
000340 5c cf 12 3e 7e ac 91 bd 61 9c 03 be 4a f2 98 3d
       0.14336914 -0.071129784 -0.12852623 0.07468088
000350 70 33 35 3d e3 60 ce 3d cf b6 2e 3e 98 84 4a 3c
       0.044238508 0.100770734 0.17061923 0.012360714
000360 1b a7 2f 3d d4 e7 d8 bd a9 65 94 3d 8a f5 1c 3c
       0.042883974 -0.10591093 0.07245953 0.009580025
000370 e4 0a 3c 3c de 61 17 be aa 98 0f 3e 79 08 cb 3b
       0.011477206 -0.14783427 0.1402308 0.0061960784
000380 c8 97 20 be 89 eb 33 3e 0d 46 d2 bd 73 c4 e2 bd
       -0.156829 0.17570318 -0.102672674 -0.11072626
000390 9f a5 6e 3d 8c fa db 3d 31 c1 2e 3e 9a f4 73 bd
       0.058263417 0.107411474 0.17065884 -0.059559442
0003a0 23 6e 3a 3e a7 53 2b be d8 c1 66 bd 68 ad e9 bb
       0.18206076 -0.1673113 -0.056337208 -0.0071312673
0003b0 d9 57 aa 3a 4e 93 1a be 02 78 e8 3d 03 57 33 be
       0.0012996151 -0.15095255 0.11351015 -0.17513661
0003c0 6b 72 19 3e c3 6d 3b be ab d0 fe bd 89 09 2c be
       0.14985053 -0.1830359 -0.12442144 -0.16800512
0003d0 68 af 50 3d 6a 7b c0 bd 89 b6 19 3e 7c f4 28 be
       0.05094853 -0.09398539 0.15011038 -0.16499513
0003e0 04 14 07 3d 7b 72 cb bd bf 95 b0 3c b9 e0 08 be
       0.032978073 -0.09933945 0.02155578 -0.13366975
0003f0 b6 22 a0 3d 64 97 fe 3c 99 c5 bf bd b6 29 e9 3d
       0.078191206 0.031078048 -0.09363861 0.11384909

conv1.bias f4 [16]
000000 42 6a 3f 3d c4 62 0c be 64 3b ab 3d f6 bf 1e 3e
       0.046732195 -0.13709551 0.08360937 0.15502915
000010 92 3c 7b bd 00 5e 07 bd 49 35 fe bc cf 7f 09 3e
       -0.06133706 -0.03304863 -0.031031268 0.13427661
000020 e8 ab 51 bd 0e 24 3a be 8d 17 a3 3a 38 33 e7 3c
       -0.051189333 -0.18177816 0.0012442932 0.028222665
000030 e3 5b 08 be 78 3d fb bd 0a 5a a3 3d 8d ce 15 be
       -0.13316302 -0.122675836 0.07976158 -0.14629574

conv2.weight f4 [8, 16, 3, 3]
000000 2a 23 1c bd 31 18 47 3d 7e fa 78 bd 74 78 4d 3d
       -0.038119473 0.048607055 -0.060785763 0.0501637
000010 4e 65 a2 3c 47 50 3a bb 5a 22 a1 bd 40 94 03 3d
       0.019823696 -0.0028429197 -0.0786788 0.032123804
000020 c3 e9 85 bd d2 b4 7d 3d 66 ac 0e bd 1e a0 9a bd
       -0.06538727 0.06194002 -0.03483238 -0.07550071
000030 29 70 6e bc 9b 1d 65 bc 4e 66 31 bd 2b 1f ab bc
       -0.014553108 -0.013984109 -0.043310456 -0.020888885
000040 b7 70 cd 3c ed d2 84 bb cd cd 9f 3d d3 11 8c 3b
       0.02507816 -0.0040534646 0.07802925 0.0042745857
000050 3c 33 62 3d b9 69 76 3d af 87 0f 3d c5 86 09 3c
       0.055224642 0.06015942 0.035041507 0.008393948
000060 2e 98 e2 bc de f0 58 bc 22 9e 8c 3d 55 b6 9e 3d
       -0.027660456 -0.013241021 0.06866099 0.07749621
000070 9c 60 15 3d eb 7c 4d 3d 94 79 ef bc 46 81 9d 3d
       0.036469087 0.05016796 -0.029232778 0.076906726
000080 4d 10 79 bd 09 33 1d 3d 63 8a 0a bd 64 b5 41 3d
       -0.06080656 0.03837875 -0.033823382 0.04729213
000090 89 4e 88 3d 1e 3a 8f 3c e5 b9 b6 3c 0b ae 9a 3d
       0.066556044 0.017483767 0.022305438 0.07552727
0000a0 72 3b 39 3d d9 61 8d bc 55 83 d6 bc 8f 4d 57 3d
       0.045222707 -0.017258571 -0.02618567 0.0525642
0000b0 ae e4 f5 3c ca 37 4e bd f9 68 61 3d ac 9f 55 3d
       0.03001627 -0.050346173 0.05503175 0.052154228
0000c0 e9 a3 a1 bd cb 02 2a bd 8c 12 1f 3d b5 de 89 bd
       -0.078925915 -0.04150657 0.038836047 -0.06731931
0000d0 0c 82 b8 bc 20 14 d9 3c 50 ce 58 3d 30 c3 78 bc
       -0.022522949 0.026498854 0.05293113 -0.015183255
0000e0 1b ec 28 3d 47 5b 15 bd 0c 52 9e bd 04 b5 cb 3c
       0.041240793 -0.036464002 -0.07730493 0.024866588
0000f0 95 df 20 bd c3 a6 92 3d 6e 19 ca bc 22 44 c8 bc
       -0.039275724 0.071607135 -0.024670329 -0.02444655
000100 6e 3c b1 3c 14 5e 32 3d cf 82 98 bd 74 55 a8 bd
       0.02163526 0.04354675 -0.07446825 -0.08219424
000110 52 da a4 3d de 4b 3c bd da e6 45 bd 90 73 df bb
       0.08049454 -0.04597079 -0.04831586 -0.006819196
000120 52 ee a3 3d fc 5a d4 bb 55 79 8f bc c3 3c 4b 3c
       0.0800444 -0.0064805727 -0.01751391 0.012404623
000130 57 26 4a 3d 07 65 3d bd 76 6c d5 3c fe f1 60 3d
       0.04935297 -0.046238925 0.026052695 0.05491828
000140 e6 a2 7f 3d f8 64 5b bc b9 dd c7 3b e2 60 31 3d
       0.06241121 -0.013390772 0.0060994294 0.043305285
000150 54 05 83 3c 5d d1 90 3d f8 41 29 3c 3f 5f 03 bc
       0.015993752 0.07071183 0.01033067 -0.008018314
000160 d3 f7 85 bd 6b 46 2b bd 59 6f 15 3d 89 10 67 bc
       -0.06541409 -0.041815203 0.036483143 -0.014103063
000170 05 16 30 bd 99 af 93 bd 32 84 8e 3d 98 01 61 bd
       -0.04298975 -0.07211227 0.06958808 -0.05493316
000180 d0 78 89 3d db b1 2e bd a0 d0 6b bd c3 04 a3 bd
       0.06712496 -0.042650085 -0.057572007 -0.079598926
000190 e8 4a 8a bd a3 fd 9a 3c 6a 2a 14 3d be 1d 94 3c
       -0.067525685 0.018919772 0.03617326 0.018080588
0001a0 4a 04 25 bd 91 7a e1 ba 73 b8 d1 bc 51 46 47 bd
       -0.040287293 -0.0017202665 -0.025600648 -0.048651043
0001b0 32 94 6a 3a a8 e6 b0 3c e0 85 5a bd 0e f0 6d 3c
       0.00089484744 0.02159436 -0.05335033 0.0145225655
0001c0 a7 e6 dc bc 0a 60 2d 3d 70 c1 b0 bb c0 a6 4f 3d
       -0.026965452 0.042327918 -0.0053941533 0.050696135
0001d0 7b 53 98 3c 6a d1 8e bd 0d d7 92 bd 6b 55 03 bd
       0.018594494 -0.06973536 -0.07169924 -0.032063883
0001e0 08 82 4e bd 91 45 87 3d ad 7f 34 bd 50 4f 08 bd
       -0.050416976 0.066050656 -0.044067074 -0.033278763
0001f0 41 43 68 3d 25 6f e8 3c ca 37 8d 3d 62 e5 4f bd
       0.056704763 0.02837331 0.068954065 -0.050755866
000200 1a a4 37 bd 49 81 1a bd 77 09 cb bc 8a 6d 25 3d
       -0.044834234 -0.037720952 -0.024784787 0.040387668
000210 4a 7d 12 bd d6 b6 40 3a 0e c7 10 3c 1f 59 cd bc
       -0.035764016 0.00073514634 0.008836521 -0.02506691
000220 ad d7 09 bb 5b 47 f7 3b 1e a8 51 3d 5b c6 48 bd
       -0.0021033094 0.007546348 0.05118572 -0.04901729
000230 e6 79 23 3d 4d 4b 75 bc 99 1b 84 3d 25 05 e1 ba
       0.039911173 -0.014971566 0.06450576 -0.0017167671
000240 98 f8 20 3d 2b cf a1 3d 37 fa a3 3d c3 35 2d bc
       0.039299577 0.07900842 0.08006709 -0.0105719
000250 6e 68 91 3d a6 68 06 3d 52 1b 92 3c c8 a2 49 bc
       0.070999965 0.032814644 0.017835293 -0.0123068765
000260 6c 40 a3 3d 7d e2 84 3b a5 69 9b 3d 2d 51 92 3d
       0.07971272 0.00405532 0.075885095 0.07144389
000270 e6 5a fc bc 50 5e 0c bd 56 5d 2a bd b6 c7 22 bd
       -0.030805063 -0.03426963 -0.04159292 -0.03974124
000280 56 86 a0 3c 00 e0 60 bc 09 c4 93 bd 6c a0 1d bd
       0.019595306 -0.013725281 -0.07215125 -0.03848307
000290 59 c9 8c bd ad 52 fa bc a3 aa ba bb 03 26 44 3b
       -0.068743415 -0.030557001 -0.005696611 0.0029929883
0002a0 0a e9 90 3d 82 1c c1 bc 7b a1 6d 3c 33 2a 9f bc
       0.07075699 -0.023573164 0.014503832 -0.019429302
0002b0 81 4b 0a bd 73 fb b5 bc 77 b9 cd 3a d0 7f b8 3b
       -0.033763412 -0.022214627 0.0015695532 0.005630471
0002c0 ed 4c 92 bd b0 d8 b8 bc 0e ef 4b bb 98 c3 96 3d
       -0.07143579 -0.022564262 -0.003111783 0.07361525
0002d0 66 1c 7f 3b 06 a7 b9 3c 9e 32 19 3c e1 25 29 bd
       0.003892684 0.02266265 0.009350447 -0.04129589
0002e0 47 77 28 3c 14 fe 34 bd 58 57 85 bd f5 d4 24 3d
       0.010282344 -0.04418762 -0.065108 0.040242154
0002f0 db 74 3a bd b2 76 20 3a e6 47 9d 3d cc a3 9c 3d
       -0.0455216 0.00061212026 0.07679729 0.07648429
000300 b6 cc c1 ba cd f7 0b bd c8 33 70 bd 44 a6 dc 3c
       -0.001478574 -0.034171868 -0.058643132 0.02693475
000310 d2 cb 82 3d 53 6a a4 bd 21 b3 4d 3d 05 7c a0 3d
       0.06386532 -0.08028092 0.05021966 0.07836155
000320 d8 cb 29 bb e7 eb 72 bd 30 3e 02 bd 16 7a aa bd
       -0.0025908854 -0.059307005 -0.031797588 -0.08324067
000330 14 06 1f 3d 2b 67 51 3d 5a 05 98 bd a3 a5 84 bd
       0.038824156 0.05112378 -0.07422896 -0.06476905
000340 62 ac 1b 3d c4 03 0f 3d dc 78 32 bd f6 81 a8 3d
       0.038006194 0.0349157 -0.04357229 0.08227913
000350 23 26 3d 3c 86 3f 34 3d c4 f7 a7 3c 4a 74 69 3c
       0.011544737 0.044005893 0.020503886 0.014248917
000360 4e d3 62 3d 5c c7 7a bd c3 c2 88 bd e5 6c 4b 3d
       0.055377297 -0.06122528 -0.06677773 0.049664397
000370 41 6e 37 3d f4 f1 94 bd 13 5c 7d bd 17 57 89 bd
       0.04478288 -0.072727114 -0.061855387 -0.06706064
000380 ad 3b 5e 3c 27 65 a2 bd 4e 60 a1 bb 31 58 83 3d
       0.0135640325 -0.079294495 -0.0049248105 0.064133056
000390 73 9a 70 bd f2 ea 4d 3d ab 24 0e bd 9c 7f 7f bc
       -0.058741044 0.05027289 -0.034702938 -0.015594389
0003a0 fd 84 9b b9 80 04 e2 3c 52 cc 4b bd df e3 c3 bc
       -0.00029662988 0.027590036 -0.049755402 -0.023912368
0003b0 38 a2 8d 3d dd 3d f5 bc 0a e4 7c bd f0 a0 97 3d
       0.069157064 -0.029936725 -0.061740912 0.07403743
0003c0 46 78 81 bc d2 a5 90 bd 66 ec a2 3d d1 3d 58 3d
       -0.015804421 -0.07062878 0.07955246 0.052793328
0003d0 d2 2a 3f bd 42 a1 82 3d 7a 38 5e 3d 1d 0b 46 bc
       -0.046671696 0.06378414 0.05425308 -0.012087611
0003e0 52 7c 8e bd 81 cd 1b 3d 72 46 9e 3d ae 34 96 bc
       -0.06957306 0.03803778 0.0772828 -0.018335667
0003f0 05 79 96 3d e1 4f 9e 3d c6 9c 00 3c 68 56 47 bd
       0.073473014 0.077300794 0.007849878 -0.048666388

conv2.bias f4 [8]
000000 ff 30 a5 3d 34 14 50 3d d2 dd 8d bd f6 1a ea bc
       0.08065986 0.050800517 -0.069270745 -0.02857731
000010 ee a4 39 bd da 2b f1 3c 66 27 68 bd 57 1a 7e bd
       -0.045323305 0.029439855 -0.0566782 -0.06203684

conv3.weight f4 [1, 8, 3, 3]
000000 44 61 b0 3d 7b 90 3c 3d 5e 2e cb bd c9 41 c8 3d
       0.08612302 0.046036225 -0.09920953 0.097781725
000010 6c 7c 3a bd 78 f7 cc bc c0 bc 51 3c 15 00 3e 3d
       -0.045528814 -0.025020346 0.012801349 0.046386797
000020 6a ed 9a 3d b3 bc f3 3c 41 a6 09 bc 21 f9 af bd
       0.075648144 0.029753065 -0.008401454 -0.085924394
000030 81 a5 5e bd f7 e2 85 bd 1a 67 41 3d 1c f4 5f bd
       -0.054357056 -0.06537431 0.047217466 -0.05467616
000040 e7 fb 86 3d 3e 55 c3 bd 00 85 19 bc 84 4c c3 bd
       0.06591015 -0.09537743 -0.009370089 -0.095360786
000050 cc ce b7 bd 4f 19 a7 bd 98 a0 93 bd ec df 23 bd
       -0.0897499 -0.08159124 -0.07208365 -0.04000847
000060 d4 37 ab 3c 20 27 85 3b 00 05 cb b9 e3 68 a1 3d
       0.020900644 0.004063502 -0.00038722903 0.07881334
000070 7d 13 f0 bd 06 82 8a bd 54 14 e0 3c 67 04 90 3d
       -0.11722467 -0.06763081 0.027353443 0.0703209
000080 60 8d 17 bd 00 d0 d2 39 3e 6b c8 bd ef 78 9b bd
       -0.03700006 0.00040209293 -0.0978608 -0.075914256
000090 22 39 0a 3d e4 f0 05 bd 90 31 b1 bd 4a 8e 3e 3d
       0.033745892 -0.032700434 -0.086520314 0.046522416
0000a0 02 ec 2c 3d f1 5c 8a 3d ce 30 79 3d c1 8d c5 3d
       0.042217262 0.067560084 0.06083756 0.09646178
0000b0 26 e1 1d 3d ce b1 63 bd 64 c4 9f 3d 75 61 da 3b
       0.038544796 -0.05558949 0.078011304 0.00666445
0000c0 a1 21 ba bd d9 09 e1 bd a9 7c d7 bd eb 9d d3 bd
       -0.090884455 -0.109882064 -0.10521824 -0.10332855
0000d0 70 10 29 bd 53 60 9f 3d 6d 78 86 bd da 9b 29 bd
       -0.04127544 0.07782044 -0.06565938 -0.041408397
0000e0 4d d8 b1 3d 45 ac ca bd da 62 07 bd 15 fa b9 3d
       0.08683834 -0.09896139 -0.033053257 0.090809025
0000f0 2f 99 ec 3d d0 8d 4c bd 46 ea 4d 3d 05 f2 c8 bd
       0.11552655 -0.04993993 0.05027225 -0.098117866
000100 21 e2 ee 3d c9 39 91 3d 8a 04 be 3d 0a 74 a7 3b
       0.116642244 0.070911 0.092782095 0.0051102685
000110 a5 7d 72 3d b4 fb bd bd e7 00 1b bd 54 28 0c 3b
       0.059201855 -0.09276524 -0.037842657 0.0021386342
