sepia/data/checkpoints/net.pth (torch_old, 876 bytes, 2 tensors)

conv1.weight f4 [3, 3, 3, 3]
-0.02382967 -0.06881154 -0.042708993 -0.027245423 0.2619788 -0.029875072 0.012560802 0.15052348
-0.04419685 0.029094392 0.16326354 -0.03768625 -0.04999014 0.06271854 0.094289094 0.108354665
0.040702622 0.015740924 -0.022014996 0.08780891 0.011298019 0.14598282 0.12874268 0.030564135
-0.07306709 -0.09705085 0.10859473 -0.029873436 0.10148823 -0.04221149 -0.04587789 0.20797905
-0.0043889596 -0.15381987 0.049540292 0.08970839 0.0993232 0.00684625 -0.030354278 -0.06933113
0.2670542 0.21206832 0.14140627 0.1556141 -0.104300186 0.02862869 -0.0730812 0.04264245
0.13435712 0.36600202 -0.068174705 -0.05030799 0.026209213 -0.052601293 -0.22804826 -0.006964781
-0.035955586 0.06916055 0.30098033 -0.055241797 -0.009013049 0.09456231 0.096184455 0.15632103
0.15689059 0.12584858 -0.05950416 0.23566844 0.011382709 -0.0876546 0.12933944 0.032937653
-0.024148379 0.073814556 -0.046564013 0.21785618 0.13126837 0.11783851 0.09534124 -0.026890762
-0.11316561
00000000: 7136 c3bc 11ed 8cbd a0ef 2ebd cb31 dfbc
00000010: 1622 863e 91bc f4bc d2cb 4d3c d422 1a3e
00000020: c207 35bd 5d57 ee3c 8f2e 273e e65c 1abd
00000030: 76c2 4cbd 9472 803d a41a c13d 0de9 dd3d
00000040: cbb7 263d 1cf3 803c cb58 b4bc 28d5 b33d
00000050: 541b 393c 857c 153e 1fd5 033e a361 fa3c
00000060: 33a4 95bd 99c2 c6bd ea66 de3d 23b9 f4bc
00000070: 10d9 cf3d f5e5 2cbd 74ea 3bbd 76f8 543e
00000080: 43d1 8fbb f582 1dbe c3ea 4a3d 08b9 b73d
00000090: f669 cb3d 8256 e03b 89a9 f8bc 7bfd 8dbd
000000a0: 54bb 883e 7028 593e cecc 103e 4d59 1f3e
000000b0: 569b d5bd b786 ea3c 99ab 95bd daa9 2e3d
000000c0: ea94 093e 9e64 bb3e 2e9f 8bbd c00f 4ebd
000000d0: b4b4 d63c 7474 57bd 7c85 69be d138 e4bb
000000e0: 2a46 13bd 0ca4 8d3d 181a 9a3e 3945 62bd
000000f0: 78ab 13bc e2a9 c13d 5bfc c43d 9f12 203e
00000100: eda7 203e 73de 003e a2ba 73bd 1153 713e
00000110: 8b7e 3a3c 4184 b3bd 8f71 043e a2e9 063d
00000120: d2d2 c5bc 162c 973d e8b9 3ebd b115 5f3e
00000130: 376b 063e 5155 f13d 4542 c33d 044a dcbc
00000140: 5fc3 e7bd

conv1.bias f4 [3]
0.0013708025 -0.00041137153 0.0001675283
00000000: 80ac b33a 5aad d7b9 89aa 2f39
