sepia/data/checkpoints/net_sepia_base.pth (torch_old, 876 bytes, 2 tensors)

conv1.weight f4 [3, 3, 3, 3]
-0.034502026 0.012820445 -0.0627742 0.011546208 0.21242408 -0.010974109 0.002246708 -0.08129287
0.08883093 0.016763804 -0.022039955 -0.03587032 0.11296932 0.12878372 0.029241178 0.06642204
0.22199947 0.0034450067 0.0012502819 0.0528724 0.124545544 -0.031951893 0.29614836 0.069706134
-0.06239671 -0.060684424 -0.11089733 -0.20868225 0.1683998 0.11071853 0.08165306 0.08858317
-0.07818701 -0.02304535 0.10694353 -0.06975922 0.14273192 -0.046135303 0.017611593 0.030833494
0.2517007 0.12034343 -0.091673486 0.04360929 0.16200444 0.07977191 -0.0017025119 -0.18356
0.04467357 0.29351628 0.14569938 0.031757817 0.037966017 -0.11450055 -0.055855427 -0.06386686
0.08785138 -0.12921777 0.18402581 0.12629817 0.10005943 0.011251631 -0.07441966 0.08573746
0.016494382 0.0682967 0.2021632 0.37602872 -0.047650497 -0.08525126 0.081519894 -0.04907558
0.033123013 -0.003007199 -0.13970333 0.019235346 0.32610434 0.030627584 -0.0800506 0.03302308
0.12946549
00000000: ff51 0dbd d80c 523c c38f 80bd 4e2c 3d3c
00000010: b385 593e c0cc 33bc 813d 133b e07c a6bd
00000020: feec b53d 3f54 893c 238d b4bc c2ec 12bd
00000030: 755c e73d e1df 033e 328b ef3c 4708 883d
00000040: d453 633e 9fc5 613b 80e0 a33a bb90 583d
00000050: bc11 ff3d fddf 02bd c2a0 973e 17c2 8e3d
00000060: b193 7fbd 3b90 78bd 241e e3bd cdb0 55be
00000070: ff70 2c3e 66c0 e23d b839 a73d 186b b53d
00000080: 8320 a0bd 9ac9 bcbc 3605 db3d ecdd 8ebd
00000090: 5128 123e 5ff8 3cbd 3046 903c 8696 fc3c
000000a0: eade 803e 9e76 f63d 4fbf bbbd a89f 323d
000000b0: 7ee4 253e 755f a33d d226 dfba 27f7 3bbe
000000c0: a2fb 363d c447 963e 3832 153e 7c14 023d
000000d0: 4182 1b3d 447f eabd a9c8 64bd a1cc 82bd
000000e0: 6deb b33d aa51 04be 4371 3c3e 4f54 013e
000000f0: f5eb cc3d c358 383c 5669 98bd 1f97 af3d
00000100: 3a1f 873c 24df 8b3d df03 4f3e d686 c03e
00000110: 2b2d 43bd 3698 aebd e7f3 a63d 7a03 49bd
00000120: ffab 073d 6d14 45bb 640e 0fbe 7293 9d3c
00000130: 26f7 a63e b3e6 fa3c 92f1 a3bd 3643 073d
00000140: 9a92 043e

conv1.bias f4 [3]
-0.00034415774 0.026533809 0.059796236
00000000: 1270 b4b9 6e5d d93c e6ec 743d
