canny_filter/data/checkpoints/net.pth (torch_old, 1218 bytes, 3 tensors)

conv1.weight f4 [3, 3, 3, 3]
000000 cd c7 1b be 6a e5 8b 3d 43 cc 26 3e 11 f1 2a 3d
       -0.15212937 0.06830867 0.16288857 0.041733805
000010 86 6e e8 3d eb 1a c5 3d c3 2b 11 be 47 78 0e be
       0.11349206 0.09624275 -0.1417685 -0.1391307
000020 7e 9a 94 3d 82 42 b6 3d 3e 88 67 bd 09 be 8c bd
       0.072560295 0.08899404 -0.056526415 -0.06872184
000030 a4 3f 47 bc 04 66 d1 3d e6 16 11 be 7c b5 f6 bd
       -0.012161169 0.10224536 -0.14168891 -0.12046334
000040 5f 3c 21 bd 6b c2 2d 3e 02 97 eb bd 14 29 0f be
       -0.039364215 0.16968696 -0.11503412 -0.13980514
000050 9e 03 32 3e 92 bb 24 be 42 57 b6 3d be fa 84 3c
       0.17384192 -0.16087177 0.08903362 0.016232844
000060 df 22 e4 bd c2 18 eb bb 1c ff c1 bd 20 d8 f5 3c
       -0.11139464 -0.007174582 -0.094724864 0.030010283
000070 31 18 16 3e 60 24 32 be 83 84 9c bd e5 32 b5 bd
       0.14657666 -0.17396688 -0.07642462 -0.08847598
000080 ad e0 9c bc 9b 2f 16 be 8f d2 ef bb 26 75 81 bc
       -0.019150103 -0.14666598 -0.0073188017 -0.015802931
000090 e3 9b 97 3d a4 58 56 bc b7 38 18 3e 03 3a 35 3d
       0.0740278 -0.013082657 0.14865385 0.044244777
0000a0 8b e0 61 bd 39 2e e9 3c cd b6 d3 3d f8 12 40 bd
       -0.05514578 0.028464423 0.10337601 -0.04689309
0000b0 e3 c5 3b 3e a5 72 3d bd 4c 38 2b be e3 66 35 3e
       0.18337207 -0.04625191 -0.16720694 0.1771503
0000c0 2f a2 39 be 52 a7 20 be 3f 04 ee 3d b3 ac ce bd
       -0.18128274 -0.15688828 0.11621904 -0.100915335
0000d0 e1 7e 5c bd d9 a9 31 3e ea 87 b9 bb 0e ce 1a be
       -0.05383194 0.17349948 -0.005661954 -0.15117666
0000e0 a3 ae 60 bd 44 d1 3d 3e f9 2a 0d bc df ed ad bd
       -0.054854047 0.1853686 -0.0086162025 -0.08492636
0000f0 fb f9 da bd 99 09 1d bd e5 11 07 3d 2a 84 08 3e
       -0.10692211 -0.03833923 0.03297605 0.13331667
000100 fd bd 12 be ca 2c 9c bc ac be fa bc 31 3b 21 be
       -0.14330287 -0.019064326 -0.030608498 -0.15745236
000110 4d 87 1a be a7 78 37 3e 8d 8c 0c 3e cb 49 17 bd
       -0.15090676 0.17917119 0.13725491 -0.03693561
000120 5f 99 86 3d 7d f6 00 bd 7a 5f fa 3d db e5 0d 3e
       0.06572222 -0.03148507 0.12225242 0.13857214
000130 67 f7 14 3c 26 2d b2 3c ff f2 fd 3c eb 9b 99 bc
       0.009092188 0.021750044 0.030999659 -0.018751105
000140 f6 c3 cc 3d
       0.09998314

conv1.bias f4 [3]
000000 50 79 5e 3a 7f bc 3a be 48 a1 2f be
       0.0008486705 -0.18235968 -0.17151368

conv2.weight f4 [1, 3, 3, 3]
000000 ff 7a ed bc 01 81 3c 3e 2a 98 74 3d 7e bb 91 3d
       -0.028989313 0.18408586 0.059715427 0.071158394
000010 43 da c2 bc 72 2f ad bd 34 04 d3 bd 85 b3 0e be
       -0.023785716 -0.08456315 -0.10303536 -0.13935669
000020 e8 21 c2 bd b3 16 33 be b3 61 5e 3d b4 81 36 be
       -0.09479123 -0.17489128 0.054292392 -0.17822915
000030 53 c1 84 bd e7 74 d4 3d fd 6d 43 be 59 4c 6c 3c
       -0.06482186 0.1037386 -0.19084926 0.0144225
000040 30 68 34 3d 3e 87 c7 3d b3 a7 fd 3d a1 1d 36 3d
       0.044044673 0.09742592 0.12385502 0.04446185
000050 dc 64 9c 3d dc 66 ab 3d e0 af c1 3d 8c 44 e7 bd
       0.07636425 0.08369228 0.094573736 -0.11292371
000060 b7 8b 81 3c 23 0e 86 3c db ae cf 3d
       0.015813692 0.016364163 0.10140773
