canny_filter/data/checkpoints/net_base_canny.pth (torch_old, 1218 bytes, 3 tensors)

conv1.weight f4 [3, 3, 3, 3]
00000000: 9707 c6bd 9c86 5f3d de2e b83d 98fd 95bc
00000010: ca72 ea3d e80e 7dbd c02a 4c3d f550 90bd
00000020: 3be4 3b3e cc8f 703d e868 9b3c cb4d 163e
00000030: 7cd7 54bd dda5 ffbd c81d 4c3d 084c 3cbe
00000040: 7e5c cbbd a822 3dbd 185b 9ebc 7c70 1d3d
00000050: f8a4 ffbc a13c 153e 5b42 08be 6818 96bc
00000060: fd26 40be df61 f6bd 144b 00bd 1094 e8bc
00000070: f218 0bbe 4b27 283e dc7b 5fbd b08b 1f3d
00000080: 04ef 433d 3108 2a3e ddbf 223e 90ba eabc
00000090: 4a82 09be eb1c 073e a4aa ddbd 4c2c 053d
000000a0: 7b19 1dbe 4c1b 4abd 5eab 1fbe c291 f13d
000000b0: 6ee4 25be 564d 1ebe b5d0 133e 4ebf b4bd
000000c0: 8cee 31be 2022 fd3c 9aaa ec3d 00fc 1bb9
000000d0: 0253 8a3d 02fc ef3d 61bc 223e 54d8 293d
000000e0: 559d bcbd 5799 a0bd e064 933c 68e7 853c
000000f0: 9edd d03d 105b eb3c e7ff 0e3e 9d98 b1bd
00000100: 787e 0fbd 58df 563d 01af 21be 1d5f c2bd
00000110: 2882 dabc 5ed1 bf3d 7f9c afbd c09e 23be
00000120: 7705 debd f176 b2bd cbc5 203e 5024 e3bd
00000130: 9585 a2bd 7065 f0bc 541b 533d c727 1f3e
00000140: 4d32 443e
-0.096694164 0.054571733 0.08993314 -0.0183094 0.114476755 -0.061781794 0.049845457 -0.07046691
0.18348782 0.058730885 0.018970922 0.14678113 -0.051963314 -0.12482808 0.04983309 -0.18388379
-0.09929751 -0.04617563 -0.019330546 0.03843735 -0.031206593 0.1457391 -0.13306563 -0.018322185
-0.18764873 -0.12030386 -0.0313216 -0.028390914 -0.13583735 0.16421239 -0.05456148 0.038951576
0.047835365 0.16604687 0.15893503 -0.028653413 -0.13428608 0.13194625 -0.10823563 0.032512948
-0.15341751 -0.04934244 -0.15592715 0.11795379 -0.1620042 -0.15459189 0.14435084 -0.08825551
-0.17376155 0.030900061 0.11555977 -0.00014875829 0.06754114 0.117179886 0.15892173 0.041466072
-0.09209696 -0.07841747 0.017992437 0.016345695 0.1019852 0.028729945 0.13964806 -0.08671687
-0.03503272 0.05245909 -0.15789415 -0.09490798 -0.026673391 0.093661055 -0.08574771 -0.15978527
-0.10840886 -0.087140925 0.15700452 -0.110909104 -0.07935635 -0.029345244 0.051539734 0.15542518
0.19159813

conv1.bias f4 [3]
00000000: dbda 9ebd 4c2b 31bd 6851 683d
-0.07756587 -0.04325418 0.05671826

conv2.weight f4 [1, 3, 3, 3]
00000000: 144a f8bd 4cd5 35be ffe1 233e 2eb3 f13d
00000010: 1490 6dbd c804 3d3d 828b e33d 4509 ffbd
00000020: 6957 ccbd e80b fc3c 3e0e 42be a6a9 883d
00000030: 703f 573d 6434 3d3d ac9e 643d 60c8 24be
00000040: 3fab d3bd 3e33 b93d dcea 0ebe ac56 44bd
00000050: 177a 183e 38de 49bd b8bc 92bc 7f73 2a3e
00000060: 90f8 ae3c 1e8d 22be 000e 8c3b
-0.12123504 -0.17757148 0.1600418 0.11801754 -0.05799873 0.046147138 0.111105934 -0.1245294
-0.0997761 0.030767396 -0.18950745 0.06672983 0.052550733 0.04619254 0.055815384 -0.16092062
-0.10335397 0.09042977 -0.13956779 -0.04793422 0.14890324 -0.04928419 -0.017912254 0.16645621
0.021358758 -0.15874144 0.00427413
